…
 class token\n        out = self.head(cls_output)\n        return out\n\n# Example: initialize model\nnum_classes = len(train_dataset.classes)\nmodel = ViT(num_classes=num_classes).to(device)\nprint(model)\n","metadata":{"trusted":true,"execution":{"iopub.status.busy":"2026-01-28T12:31:22.702602Z","iopub.execute_input":"2026-01-28T12:31:22.703446Z","iopub.status.idle":"2026-01-28T12:31:23.468921Z","shell.execute_reply.started":"2026-01-28T12:31:22.703411Z","shell.execute_reply":"2026-01-28T12:31:23.468178Z"}},"outputs":[{"name":"stdout","text":"ViT(\n  (patch_embed): PatchEmbedding(\n    (proj): Conv2d(3, 768, kernel_size=(16, 16), stride=(16, 16))\n  )\n  (dropout): Dropout(p=0.1, inplace=False)\n  (blocks): ModuleList(\n    (0-11): 12 x TransformerEncoderBlock(\n      (norm1): LayerNorm((768,), eps=1e-05, elementwise_affine=True)\n      (attn): MultiheadAttention(\n        (out_proj): NonDynamicallyQuantizableLinear(in_features=768, out_features=768, bias=True)\n      )\n      (norm2): LayerNorm((768,), eps=1e-05, elementwise_affine=True)\n      (mlp): Sequential(\n        (0): Linear(in_features=768, out_features=2048, bias=True)\n        (1): GELU(approximate='none')\n        (2): Dropout(p=0.1, inplace=False)\n        (3): Linear(in_features=2048, out_features=768, bias=True)\n        (4): Dropout(p=0.1, inplace=False)\n      )\n    )\n  )\n  (norm): LayerNorm((768,), eps=1e-05, elementwise_affine=True)\n  (head): Linear(in_features=768, out_features=2, bias=True)\n)\n","output_type":"stream"}],"execution_count":12},{"cell_type":"markdown","source":"# Training ViT from Scratch","metadata":{}},{"cell_type":"code","source":"import torch\nimport torch.nn as nn\nimport torch.optim as optim\nfrom tqdm import tqdm\n\ndevice = torch.device(\"cuda\" if torch.cuda.is_available() else \"cpu\")\n","metadata":{"trusted":true,
…
ll.execute_reply.started":"2026-01-28T13:41:13.710963Z","shell.execute_reply":"2026-01-28T13:41:13.717898Z"}},"outputs":[],"execution_count":75},{"cell_type":"code","source":"model = MiniViT(num_classes=2).to(device)\nprint(model)\n","metadata":{"trusted":true,"execution":{"iopub.status.busy":"2026-01-28T13:41:19.991194Z","iopub.execute_input":"2026-01-28T13:41:19.992079Z","iopub.status.idle":"2026-01-28T13:41:20.022291Z","shell.execute_reply.started":"2026-01-28T13:41:19.992039Z","shell.execute_reply":"2026-01-28T13:41:20.021698Z"}},"outputs":[{"name":"stdout","text":"MiniViT(\n  (patch_embed): Linear(in_features=768, out_features=128, bias=True)\n  (transformer): TransformerEncoder(\n    (layers): ModuleList(\n      (0-3): 4 x TransformerEncoderLayer(\n        (self_attn): MultiheadAttention(\n          (out_proj): NonDynamicallyQuantizableLinear(in_features=128, out_features=128, bias=True)\n        )\n        (linear1): Linear(in_features=128, out_features=2048, bias=True)\n        (dropout): Dropout(p=0.1, inplace=False)\n        (linear2): Linear(in_features=2048, out_features=128, bias=True)\n        (norm1): LayerNorm((128,), eps=1e-05, elementwise_affine=True)\n        (norm2): LayerNorm((128,), eps=1e-05, elementwise_affine=True)\n        (dropout1): Dropout(p=0.1, inplace=False)\n        (dropout2): Dropout(p=0.1, inplace=False)\n      )\n    )\n  )\n  (norm): LayerNorm((128,), eps=1e-05, elementwise_affine=True)\n  (head): Linear(in_features=128, out_features=2, bias=True)\n)\n","output_type":"stream"}],"execution_count":76},{"cell_type":"code","source":"train_loader = DataLoader(\n    train_dataset,\n    batch_size=32,\n    shuffle=True,\n    num_workers=2,\n    pin_memory=True\n)\n","metadata":{"trusted":true,"execution":{"iopub.status.busy":"2026-01-28T13:41:26.254683Z","iopub.execute_input":"2026-01-28T13:41:26.255439Z
…
